growth_model.pth (torch, 35539 bytes, 8 tensors)

model.0.weight f4 [60, 4]
00000000: 03de 893d 6100 6dbe 475b 253f 21d6 a8be
00000010: 5057 4dbc cb55 1e3f 0882 64bf 29ac cd3b
00000020: 4a64 4bbf 26cd 5abc b3c6 bb3e 2c7d 5e3e
00000030: 6b97 c73e fbd7 65be fcb5 753e 310d cfbe
00000040: 78c6 b2bd 9c3f cc3e b098 02be 4061 823c
00000050: e9ba 3fbf f69e 76bb 3b1b 1b3f 118c 163e
00000060: 280e 5a3e f845 df3e 4324 c63e 9e9f 23bf
00000070: 323d d53e 1f1b 9ebe 1370 3f3e 03a1 153c
00000080: 3d65 50bf 3185 1f3e bd91 4cbe 2e14 c83b
00000090: f672 e4be be03 233e fb76 cfbc da1c 613c
000000a0: ddff 44bf 34f9 903b ac88 363f 0773 e1bb
000000b0: b88e 773e e9d3 babe 5e6c d13e b980 293e
000000c0: 9581 063f 36be 91be ed53 13bf b3e0 28bc
000000d0: a239 99bb 3997 2c3f d0e9 1bbf c105 913e
000000e0: 9416 033c 171d c33e 22ab 1bbf b85b 6b3e
000000f0: 59b0 b33d 313f 9b3e a5e3 023f c5e0 94be
00000100: b444 1e3f 105e 2fbe 6fdb 0abf 15f1 2dbc
00000110: 4bb6 743d b4d1 0b3e 0dfe 3ebf 7588 173e
00000120: 7fac 0dbf da96 013c 2ec9 243f 0fbb babb
00000130: 9f5c 00bf 85c6 a03c 08f5 343f 2443 ce3e
00000140: af1e 3bbf b75c 103c 3cd8 093f 5d81 a2bc
00000150: 2cdf 17be 77c9 b63e 0aa5 9dbc b410 ef3b
00000160: 40fd d5be 71a0 e13d 69c4 00be d560 133e
00000170: 164b a9be 4e8b 993d 4b14 80be 93e8 3cbd
00000180: 64df 36bf 2d7e 183c eb48 043f a254 d23a
00000190: 106b 36bf e700 b0bc 25a7 b93e 9f86 80be
000001a0: 93ad 343e 1fe4 b23e 9d87 243e b042 b23e
000001b0: e135 83bc 3177 c7be 1cdc f8be 9240 a2bb
000001c0: 2be0 e13d 537a 19bf 2a06 473f b790 18bd
000001d0: 4e26 eebe 0730 543e 0be5 d9be 74b3 d139
000001e0: 3145 303e 3ce2 5dbe 6f08 a9be 3f89 473e
000001f0: 8104 103f a008 98be 5c76 1abf 9567 27bc
00000200: 84c7 323e c8ed 63bd 974e d43e d33d 39be
00000210: 3c39 6f3e f6e0 a6be 35ef 10bf 836f df3b
00000220: 90d5 eebe 5862 9e3a 7d22 373f ad8f f1bc
00000230: dd8f 0ebe 2d27 143f dfcd 59be 8c08 6c3e
00000240: 0ab7 09be a6ab 71be 068a b53e ca8f 10be
00000250: 3677 5cba 32e6 a83e 9f1c efbe b885 803e
00000260: 215e ef3d 6c1f 953e cc30 4ebf e620 c3ba
00000270: db81 633e 6b46 313e 22eb 3f3d 1237 5e3e
00000280: e683 d53d e9c5 923c 413d 193f 27f8 13bf
00000290: 7b93 233e dd24 fabe 01af 3d3f 1407 cfbd
000002a0: 7ba6 fcbe bb00 d7be 6b77 023f d9d5 593d
000002b0: 194e 203b e789 d73e 40f5 1bbf 3b32 7d3e
000002c0: d17c ce3e 4932 72be 6a3b d6be 535a fbbb
000002d0: f918 01bf 5f9e 073e a6c9 32be d5d8 52bd
000002e0: 151a e93c 4843 fc3e ab4d 8fbe 3aef 8bbe
000002f0: 4bda f7bd fc96 a7bd dc4f 04bd 2039 ad3e
00000300: 8e81 59bc e218 12bf 0d71 7c3e 1265 c03e
00000310: 13d4 24bd 0e9e 09bf 5efd 583f bc10 323a
00000320: 073f b6be 7435 60bd add3 1b3e 5206 f6bc
00000330: 1477 773d f63a 0a3f 1c75 bebe 40ac b4bc
00000340: f77f b0be 4615 253f 1ca2 8fbd 2018 03bd
00000350: 3c3a 27bf bc32 54bc 3cca c33e 6904 143d
00000360: 6af8 2cbc d008 013f 2bcf 3bbf 9840 243e
00000370: be86 54bd 1c1b 91be 411d 453f a085 54be
00000380: ed96 473c 917c fb3d 7d2b 5c3f f009 02bf
00000390: 53aa 9c3d 6a0d 053e f5ba 28bf d5fb ab3d
000003a0: 72ca 6d3c b29c cebc 5215 0a3f 76fc 20bd
000003b0: dabe df3e 8e7b 66bd ad66 313e 4779 0abe
0.067317985 -0.23144676 0.64592403 -0.32975867 -0.012533024 0.6184966 -0.8926091 0.0062766266
-0.79449904 -0.013354575 0.36675033 0.21727437 0.3898271 -0.22445671 0.23995203 -0.40439752
-0.08729261 0.3989228 -0.12753558 0.015915513 -0.7489458 -0.003763137 0.60588425 0.14701869
0.21294463 0.4360807 0.3869954 -0.6391543 0.4164825 -0.30880067 0.18695097 0.0091326265
-0.8140448 0.15578152 -0.1997747 0.006105921 -0.44618958 0.15919396 -0.025325289 0.013739789
-0.76952916 0.0044242386 0.71302295 -0.0068801674 0.24175537 -0.364898 0.4090299 0.1655301
0.52541476 -0.28465432 -0.57549936 -0.010307479 -0.00467606 0.6741825 -0.60903645 0.28324702
0.0080009885 0.3810813 -0.60808 0.22984207 0.0877387 0.3032165 0.5112861 -0.29077736
0.6182358 -0.17125726 -0.5424108 -0.0106165605 0.05974416 0.13654214 -0.746064 0.14798148
-0.55341333 0.007909501 0.64369476 -0.0056985687 -0.5014133 0.019625911 0.7068639 0.402856
-0.73093694 0.008811167 0.5384557 -0.019837076 -0.14831227 0.3570058 -0.019243736 0.0072956923
-0.41794777 0.1101693 -0.12574925 0.14392407 -0.330651 0.074972734 -0.25015482 -0.046120238
-0.7143462 0.009307426 0.51673764 0.0016046951 -0.71257114 -0.021484805 0.36260334 -0.25102708
0.17644338 0.34939668 0.16067357 0.34816504 -0.016016902 -0.38958123 -0.4860543 -0.004951545
0.11029085 -0.59952277 0.7774378 -0.037247386 -0.465136 0.20721446 -0.42557558 0.0003999729
0.17213894 -0.21668333 -0.33014247 0.19485949 0.5625687 -0.2969408 -0.6033685 -0.010217567
0.17458922 -0.055646688 0.4146621 -0.1808999 0.23361677 -0.32593507 -0.56615 0.006818713
-0.4664731 0.0012083752 0.71537 -0.029487455 -0.13922067 0.5787228 -0.2126994 0.23050135
-0.1344873 -0.23600635 0.35456866 -0.14117351 -0.0008410098 0.32988125 -0.46701524 0.2510202
0.116878755 0.29125535 -0.8054321 -0.0014887124 0.22217505 0.17312019 0.0468551 0.21700695
0.10425548 0.017916637 0.5985909 -0.57800525 0.15974228 -0.4885625 0.7409516 -0.10108772
-0.49345765 -0.41992745 0.5096347 0.053182457 0.0024460612 0.420974 -0.60921097 0.24726193
0.40329602 -0.23651995 -0.41842204 -0.0076706796 -0.5042873 0.13244008 -0.17459735 -0.05147632
0.02845482 0.49270082 -0.27988943 -0.27330953 -0.12102183 -0.08183095 -0.032302722 0.33832645
-0.013275517 -0.5706922 0.246525 0.3757711 -0.040241312 -0.537568 0.8476161 0.0006792655
-0.3559496 -0.054738477 0.15217467 -0.03003231 0.060416296 0.5399622 -0.37198722 -0.022054791
-0.3447263 0.64485586 -0.07013342 -0.03200543 -0.65323234 -0.012951549 0.3824023 0.03613702
-0.010557273 0.5040407 -0.7336299 0.16040266 -0.051886313 -0.28340995 0.7699776 -0.20754099
0.01218198 0.122796185 0.8600386 -0.50796413 0.07649674 0.12993398 -0.65910274 0.083976425
0.014513599 -0.025221203 0.5393878 -0.039303266 0.43700296 -0.056270175 0.17324324 -0.13522826

model.0.bias f4 [60]
00000000: ffc7 97be ad5d 6a3e a948 cbbe 1da7 1abf
00000010: 4c51 fabe 74c6 23be efc5 bfbe b997 44be
00000020: 73ce 14bf dc41 81bc 7696 453b 3d76 793e
00000030: 687d 44be 28a2 c8be a09d 523b 4286 19bf
00000040: 637b 78bc 62a8 f83d 6a0e ad3d 9e80 5fbe
00000050: 4d00 96bc 5ec3 0abe b6f8 ac3c e07b 0fbf
00000060: 884c a5bd 81b5 00bf 0131 dabe 2b3a 0cbf
00000070: 88b1 2bbe 36bd 01bf 581b c1be f117 57be
00000080: 939c b8bd db53 d1be 40fb 133e 2d36 63be
00000090: 390f a13d 8dd9 6cbd 863d dbbc c11f e3bd
000000a0: 0e47 d2be ab08 9fbe 78c0 99be 45f7 aabc
000000b0: 03df 0bbe 3f2b e4be 3029 953c 1895 11be
000000c0: e20c 983e e702 1bbe fefa 9d3d 78e6 a2be
000000d0: 4bc4 c1bc dbfd 2bbe 6e91 833d 6a06 7abe
000000e0: 4a1d 6bbe c4f2 103e c0ed 6e3e 664b 453e
-0.29644772 0.22887297 -0.39703873 -0.60411245 -0.4889015 -0.15993673 -0.374557 -0.19198503
-0.58127517 -0.015778475 0.0030149496 0.2436151 -0.19188464 -0.39186215 0.003213741 -0.59970486
-0.015166136 0.121414915 0.08450015 -0.21826407 -0.01831069 -0.13551089 0.021114688 -0.56048393
-0.08071238 -0.50276953 -0.42615512 -0.5477626 -0.16766942 -0.5067934 -0.37716174 -0.21005227
-0.09014239 -0.4088429 0.14451313 -0.22188635 0.078642316 -0.05782466 -0.026762735 -0.11090041
-0.41069835 -0.310613 -0.30029655 -0.02086986 -0.13659291 -0.44564244 0.018208116 -0.14217031
0.2969733 -0.15137826 0.077138886 -0.3181646 -0.02365317 -0.16796057 0.06424223 -0.2441651
-0.22960392 0.14155108 0.23332882 0.19267043

model.3.weight f4 [60, 60]
00000000: 2f2e 853e ab14 fcbc 5977 4f3f 575d 733e
00000010: c48b 9cbc 29a8 023f d4e7 94be 879b 133e
00000020: 5c7b ba3f 978c 29bc 99c3 513f 3c0c 36be
00000030: 35f6 01bc fa00 933c 0a27 f9bc f691 18be
00000040: 0b89 8fbd 2d12 823b 83fb fd3e 8d96 2f3e
00000050: b392 af3d 3ae3 ff3c 708a 4f3c 7d9a 15be
00000060: 75d3 043f 6fb6 503f 6b04 73be e849 a7ba
00000070: 15ad b7bd 9f95 8c3f f1ff 8fbc 2131 5abd
00000080: 3481 c9bd 259c ac3c f8ee b73e 577f 373d
00000090: efd3 7d3d 2ab6 4ebd eef4 803c 31b3 4dbe
000000a0: 95c4 ad3e 0c70 8f3e e495 743d bfef 143d
000000b0: cf1c 503d 5420 3f3f 12b4 233d 4151 8e3d
000000c0: 0414 043d ef09 b93d 2862 bc3b ad54 8cbe
000000d0: 9175 ca3b 3928 703f 7f96 3b3c cdcd 6f3e
000000e0: 65db 333e 10b2 88bc 1e8f 4ebd 26af 78be
000000f0: d7e6 4e3e 8ab2 9dbe 9573 153f e8a7 9f3e
00000100: d042 903c 5de8 a43d 5df7 1ebd dbcc 163e
00000110: cb13 eb3e 3cd4 06bd 7b6e 3b3e 6677 aa3d
00000120: 4980 9b3d 6e3d e0be dbc4 abbd 9eb0 25bd
00000130: 58ad 29be 2af0 2b3c 53fa 683e db76 813d
00000140: 6cd9 0d3e a618 acbc ca12 a23d f8ab c73b
00000150: d1bc 873e 1e5e 3f3f 7234 0a3d fc72 373d
00000160: 03da 913e 891e f53e 8990 953d 9142 903d
00000170: 4e87 7cbc 667a cc3d 9655 983d 452d 0ebe
00000180: fbc9 ce3c 8cf9 e4be 62b0 3abe 4340 27bd
00000190: 8963 833e faf9 753e 1312 153e eebe eebe
000001a0: 1f97 fbbd 7b66 e33e ea20 623d 9ae2 dcbc
000001b0: e107 1c3d c17e f13e 12d9 623d 965f d2be
000001c0: 9c04 cc3d b5a9 2e3f cdb7 f8be 317b b43e
000001d0: 6633 143e c612 943d 458d 9ebc ba9f f53c
000001e0: faed c83d 9640 1e3c 2ed5 82be 507e ccbe
000001f0: 507b 9bbd f85d 70be 3b55 cf3d 7c29 a6be
00000200: a969 84bf 323f 0a3d ab56 1bbe 60ec 0b3e
00000210: a564 c33e 8eae 00bf 9628 3c3c 675b d6be
00000220: e8e5 703e d540 e7bc e4e0 96be 1dd0 c0be
00000230: ea77 813c 8029 0bbb 4899 233c 8f01 0a3e
00000240: 2c0f 4dbd ccf7 c9be 704a a0be 1ff9 0e3e
00000250: ada3 203e bfdf 9bbf 2f52 183e af72 063f
00000260: 94f2 d2be 15ac 0f3f 5845 8abe 93ed e1be
00000270: 9330 2dbd 39e7 abbd 817e 023d 2202 48be
00000280: 8709 4dbe 6397 1dbe edd1 37bd 8169 01be
00000290: 2a5e 633e 3106 5dbf fbf1 1d3b 1528 043e
000002a0: 7f78 8f3b a217 293e cce2 443a c518 42bd
000002b0: 5d2a efbd b30d efbe 34e5 0abd 044d 263e
000002c0: e775 e5be a9f6 4a3d ecad 83be 1a2c 2e3e
000002d0: 5803 143e be88 5cbd 4841 33bf 67c1 73bf
000002e0: e01a e4bd e8a5 1cbe 463d 833c 8091 e7bd
000002f0: f16b 8dbf 2dd2 aabd eb73 93bc c062 c3bc
00000300: a914 ee3e f61c 573d df7d 803c d7a6 8b3d
00000310: a96a 493e a4b7 523b 1deb 6ebd 399a a83c
00000320: f83b 2dbe 0708 8b3d 6009 5ebd 9272 233d
00000330: 5257 c5be bff9 30bf ca10 813d 8e77 e23e
00000340: 4268 453c 7094 49bf eeda 193e bee0 183f
00000350: a614 c2bc 36e0 863f 9ab4 50bd 5791 ac3e
00000360: 06f9 503c 9908 d63d 589c 24bd 8ea6 ec3c
00000370: e20b c2bd f268 aabd f931 b4bb 980c 98bd
00000380: 0141 ff3e 962a 14bf 7c50 083d 2efd 2a3d
00000390: d299 4b3d 34e9 a7bd c592 85bd 19a3 2c3f
000003a0: 598b 263e 79ad d8be 2164 9cbd a288 083e
000003b0: b701 9dbd c1bc aabd 0319 593c a8e7 c93d
000003c0: bfdc 833e af5c 87bc 1608 6b3f 44f3 f03e
000003d0: c2d4 3cbd 0e97 9e3e 6f72 763d 45b9 0a3e
000003e0: fa1f dc3f 00c4 d53d 08d4 273e a693 713d
000003f0: 1cc3 9e3d 2e41 5fbe 7817 0a3b 5f43 0cbd
0.26011798 -0.030771574 0.81041485 0.23766075 -0.019109614 0.5103784 -0.2908312 0.14414798
1.4568896 -0.010348461 0.81939083 -0.17778105 -0.0079322355 0.017944802 -0.030414123 -0.1489943
-0.07008561 0.003969452 0.4960595 0.17147274 0.085729025 0.03123628 0.012667283 -0.14609714
0.5188516 0.8152837 -0.23732154 -0.0012763115 -0.0896856 1.0983161 -0.017578097 -0.05326951
-0.09839097 0.02107055 0.35924506 0.044799175 0.061969694 -0.050466694 0.015741792 -0.20087887
0.33939043 0.28015172 0.05971326 0.036361452 0.050808724 0.74658704 0.03996665 0.06949092
0.03224565 0.09035098 0.005749006 -0.27408352 0.006178566 0.93811375 0.011449455 0.2341835
0.17564161 -0.01668647 -0.050429456 -0.24285564 0.20205246 -0.30800277 0.5837949 0.3118279
0.017609984 0.08052132 -0.038810123 0.14726584 0.45913538 -0.032917246 0.18303864 0.08323555
0.07592828 -0.43796867 -0.083871566 -0.04045164 -0.16570032 0.010494271 0.22751741 0.06321498
0.13852471 -0.021007847 0.0791374 0.0060934983 0.26511243 0.74752986 0.033741422 0.044787392
0.28486642 0.4787486 0.073029585 0.070439465 -0.0154131185 0.09984283 0.07438199 -0.13884456
0.025242796 -0.4472164 -0.18231347 -0.04083277 0.25661877 0.2402114 0.14557676 -0.46630043
-0.122846834 0.44414124 0.05520717 -0.02696352 0.03809345 0.47167018 0.055382796 -0.4108855
0.09961817 0.682277 -0.4857773 0.35250238 0.14472732 0.07230143 -0.019354472 0.02998339
0.098110154 0.009658953 -0.25553268 -0.3994012 -0.07591879 -0.23473346 0.10123678 -0.32453525
-1.0344745 0.033751674 -0.1516978 0.13664389 0.38162723 -0.5026635 0.011484286 -0.4186661
0.23525202 -0.028229157 -0.29468453 -0.37658778 0.01580425 -0.0021234453 0.009985276 0.13477157
-0.050063297 -0.39446867 -0.3130679 0.1396222 0.15687437 -1.2177657 0.148751 0.52518743
-0.41200697 0.5612195 -0.2700603 -0.44126567 -0.042282652 -0.083937116 0.031858925 -0.19532064
-0.20023166 -0.1538978 -0.044877935 -0.12637903 0.2220389 -0.8633757 0.002410053 0.12905915
0.004378378 0.16512921 0.0007510602 -0.047386903 -0.11678002 -0.4669014 -0.03390999 0.16240317
-0.44816515 0.04955164 -0.2571863 0.17009011 0.144544 -0.053841345 -0.70021486 -0.95216984
-0.111379385 -0.15297663 0.016020428 -0.11307049 -1.1048566 -0.08340869 -0.01799961 -0.023850799
0.46500137 0.052517854 0.01568502 0.068189315 0.19669594 0.0032152915 -0.05832969 0.020581352
-0.16917408 0.067886405 -0.05420816 0.039904185 -0.38543183 -0.6913108 0.063020304 0.44231838
0.012048783 -0.7874212 0.15024921 0.5971793 -0.023691487 1.0537174 -0.050953485 0.33704636
0.012754684 0.104508586 -0.040188164 0.028888013 -0.09474923 -0.08320798 -0.0054991213 -0.07424277
0.49854282 -0.5787748 0.03327988 0.041745357 0.04970724 -0.08198777 -0.06522135 0.6743637
0.16264094 -0.4231985 -0.076362856 0.13333371 -0.07666343 -0.08336783 0.013250592 0.09858638
0.25754353 -0.016523687 0.91809213 0.47060597 -0.04610134 0.3097462 0.060167726 0.13547237
1.7197258 0.10437775 0.16389477 0.0589787 0.07752058 -0.21802208 0.0021071117 -0.034243938

model.3.bias f4 [60]
00000000: 0cba fcbb c8c4 c0bd 6f69 253e a482 9f3e
00000010: f9ff c1bc 0125 d9bc de9f bbbc f7a1 b73c
00000020: 222e 48be 9077 22be ea4c 283e d63b 593e
00000030: 9333 333e efa2 f9bd f3b6 ee3d 7814 d9bd
00000040: 8b71 2a3e ad83 d23d 7ac0 fe3d b46d 5c3e
00000050: e7be a53e 56ac d33c 3d24 a93d 307a 3ebe
00000060: c6d4 dd3d 9461 71bd edd4 c53b dd41 cabd
00000070: e15f 16be d3b9 513e 14be 0a3e c972 6ebd
00000080: 4810 2a3d f32c a73c e000 2c3d bc57 bd3d
00000090: ee6e 3bbe 9e4d 163e 0e5b 72bd 7c0c 773d
000000a0: edf1 9fbd e6bf fb3d 6295 37be cd72 9d3e
000000b0: faf5 dc3b 6d14 0b3e b7d5 063e 0780 9f3c
000000c0: 1401 093e a4bd 1bbc 23f7 74bd edeb 40be
000000d0: 4d1b 323e 8648 40be 4616 2f3e e7dd 483e
000000e0: 9d85 7fbd 6040 0dbe 21e1 0bbe 7ca0 cd3c
-0.007712608 -0.09412533 0.16153501 0.31154358 -0.023681628 -0.026506903 -0.022903379 0.022416098
-0.19548848 -0.15865922 0.1643559 0.21214232 0.17500143 -0.1218928 0.116559885 -0.10599607
0.16644876 0.102790214 0.12439056 0.21526223 0.3237221 0.025839012 0.08258865 -0.18601298
0.10831599 -0.05893095 0.0060373456 -0.09875844 -0.14685012 0.20481043 0.13549072 -0.058214936
0.041519433 0.020407176 0.041993022 0.0924525 -0.18304035 0.14678046 -0.059168868 0.06031464
-0.078098156 0.12292461 -0.17928079 0.3075165 0.00674319 0.1358201 0.13167463 0.019470228
0.13379318 -0.009505663 -0.059806 -0.18839999 0.17393227 -0.18777665 0.1709834 0.19615899
-0.062383283 -0.13794088 -0.13660099 0.025100939

model.6.weight f4 [60, 60]
00000000: 4221 37be e635 e5bd 431b d3bd 8c51 b3bd
00000010: bd28 24be b3ea b3bb f7b4 11be c16d 0abe
00000020: 3ebd 37be f085 c7bd ea7a cbbd 2a39 e8bc
00000030: f1b6 8fbd ba93 14be d7d8 bfbd df9a f0bc
00000040: 58f8 f63c 59a1 20be 6a8f 04bd c0cd 4c3c
00000050: 7d65 40be 8cf0 33bc ed5f 0bbd 0a73 9d3d
00000060: 85a3 26bd d8d4 113c 89d9 8bbd f7a9 1ebe
00000070: 94ed e23a 8075 c7bd b3ac c1bd 87be 1b3e
00000080: 265f 41be 3cb3 703d 76e4 13be bc74 0abe
00000090: 2a9f 2c3e f9be 563d 2f46 93bd 54dc 0ebe
000000a0: e78b 7e3d aab5 c7bd 8fd1 d13c 4682 593d
000000b0: 7680 18bd ec4e eebd 815a 67bd 7d4a 31be
000000c0: 1a20 24bc 9df7 0f3d d05b 32be c361 ebbc
000000d0: 58d7 24bd 251d d0bd 8b07 3bbe 2bc7 e73d
000000e0: 1813 6a3d 7a2f 793b 78ed e7bc e7a0 c5bd
000000f0: 341e 473f f10c 7a3e 0f27 38bc ba69 3bba
00000100: 7401 f43e 10bc 9f3e 237d ecbd ef72 3ebd
00000110: 4a5b b6bc c09b 473f ee95 b7bc c23b 0bbe
00000120: a59f cd3e 0f18 e13e f44d 533d 6bd7 2fbc
00000130: 7d98 423c b4b9 e0bc 17af 373e d13d ee3d
00000140: ef9d 0fbd 4e7f 98bd 297a 933d 9058 383f
00000150: 02ae 073f 599b 073f 8d6f 8a3d 3143 533d
00000160: 7875 4ebe 37ef fb3c ae5b 203d 5c27 84bc
00000170: 0915 02be 8283 c1bd d60b 4c3f 1775 243f
00000180: d32e 483e 9a65 b13c 74f9 3a3f d974 7bbd
00000190: 6220 3e3f c9e0 34bd 3abb 083e 7345 8ebd
000001a0: 88fc 0f3f 5d69 1d3d 42cb f8bc bb1c 5a3e
000001b0: 9cae 7dbe 79d1 1f3f 772b ad3e 7d78 ae3d
000001c0: af73 c5bd 21da be3e 01c4 a13d 7e6f b9bd
000001d0: f336 0abc ac20 1f3f 66f3 e23e e892 0bbd
000001e0: 20fe 9c3e 20bb b23a 82f0 a4be b6bc 47be
000001f0: 4360 3e3e 8193 713e 09fe 2c3d 10fc 0ebd
00000200: 1566 ff3d aaa7 bd3e 5dcf 09be 5102 62be
00000210: c2ab aebe 2fc0 15bb 7997 afbe 8019 7c3e
00000220: 9ccd 053e 70b8 c0bd 6a71 c6be 46b9 a8be
00000230: ba04 75be 0c1e d53d b5fb edbe 24fd 80be
00000240: a06b e3bc 1540 9f3e c057 fa3d df67 963d
00000250: f8f3 313d 1a61 ee3c 2ccc 17be f303 003e
00000260: 227c 67be 9efe f9be bdee b23e b77c 2dbe
00000270: dbcc 5f3d aad8 4e3e 2e51 2f3e b8b3 c23c
00000280: 71d7 4d3e cb02 863d 40ca 0e3e 84d6 66be
00000290: 0945 29be 99d6 a5bb 6a9b dcbe 23c1 e3bd
000002a0: c1b5 17be 85ad 593e ecfa 3f3d c684 893d
000002b0: 96e1 83be fd7e 913b bd09 87be ede4 1dbe
000002c0: 5fb9 c63a 63cf 9cbe 81ca 9dbe 1168 2cbe
000002d0: 5805 f5bd 7ffe 393d d7b5 b0bc 8975 1abe
000002e0: c8fd 1bbe f104 33be a357 87bd 5293 e3bd
000002f0: 3351 603d 1c89 4cbe f5c9 38bd fa59 a33c
00000300: 53bc 2c3d f674 013d d277 f1bc 7ecc d63b
00000310: a5b4 823d 53fd 3abe 5eb5 2bbe 404a babd
00000320: c353 d8bc 6168 b8bd 8c12 37be 4943 33be
00000330: 0ec7 92bb d64e ef3c 0d4f 99bd b6e4 8fbd
00000340: c369 ed3c eba3 11be 6a05 46be 4c9c 53bd
00000350: 4c05 dcbd 7ac9 1dbd 67df b7bd 4c6e 62be
00000360: 1fcd 3e3c a2ce 393d 5a45 41be fe7c 8dbd
00000370: 2d8e bdbd ed0a 45be 1a9a 22bd 6988 7c3b
00000380: 5c36 753d 0a9f b8bc 7844 a9bd 2ad6 2abe
00000390: a50a 323d 085f cebd bfc5 80bd 22fc fdbd
000003a0: fcbc 97bd d15d 1bbe a3bb 39be 5592 b6bd
000003b0: 98e9 803d cdd0 28be 0435 b43c 6e80 c83b
000003c0: acf6 03be 096f 4f3e 060d f63e 99c7 513e
000003d0: 00d9 1c3e 24c8 813e adca 773e 20bc 903d
000003e0: 1011 3e3e 740a 2bbe 8b9f 8a3e 5e14 b13e
000003f0: 632a d1bd 0ddb 403e f29a 1abd 1608 8a3e
-0.1788378 -0.11191921 -0.10307934 -0.08755788 -0.16031165 -0.005490625 -0.14229189 -0.1351843
-0.17943284 -0.097423434 -0.09935553 -0.02834757 -0.07017315 -0.14509478 -0.09367531 -0.029370723
0.030147716 -0.15686549 -0.032363333 0.0125002265 -0.18788715 -0.010982644 -0.03402703 0.076879576
-0.040683288 0.008900844 -0.06828601 -0.15494524 0.0017313235 -0.09739208 -0.09456768 0.15209399
-0.18883952 0.05876468 -0.1444262 -0.13521093 0.16857591 0.05242822 -0.07191121 -0.13951236
0.06214514 -0.097514465 0.02561262 0.053102754 -0.037231885 -0.11636147 -0.056482796 -0.17313571
-0.010017419 0.03514825 -0.17417836 -0.02873314 -0.04024443 -0.10161809 -0.18264596 0.11317285
0.057147115 0.0038022683 -0.028311476 -0.0964983 0.7778046 0.24418999 -0.011239781 -0.00071492384
0.4765736 0.31198168 -0.115473054 -0.046496328 -0.022260327 0.7797203 -0.02241036 -0.13597015
0.40160862 0.43963668 0.051588014 -0.010732512 0.011877176 -0.0274323 0.17937885 0.11632884
-0.035062727 -0.074461564 0.072010346 0.72010136 0.5299989 0.52971417 0.06759558 0.05157775
-0.20161998 0.030753715 0.039149933 -0.01613205 -0.12703337 -0.09448911 0.7970556 0.64241165
0.19549112 0.021654893 0.73036885 -0.06139073 0.7426816 -0.044159684 0.13352671 -0.0694684
0.5624471 0.03843056 -0.030370358 0.21300022 -0.2477364 0.62429005 0.33822224 0.08519075
-0.096412055 0.37275794 0.07898713 -0.090544686 -0.0084359525 0.6215923 0.44326323 -0.034075648
0.30662632 0.001363609 -0.32214743 -0.19505581 0.18591408 0.23591425 0.042234454 -0.034908354
0.124706425 0.3704198 -0.13458009 -0.22071196 -0.34115416 -0.0022850146 -0.34295252 0.24619102
0.13066715 -0.09410179 -0.38758403 -0.32953852 -0.23927584 0.104061216 -0.464811 -0.2519313
-0.02776128 0.31103578 0.12223768 0.073440306 0.043445557 0.029099036 -0.14823979 0.12501507
-0.22605947 -0.4882707 0.34947768 -0.16942106 0.054638725 0.20199838 0.17120811 0.023767337
0.20101716 0.065435015 0.1394434 -0.22542769 -0.16530241 -0.0050609824 -0.43087322 -0.11120822
-0.14815427 0.21257599 0.046870157 0.06714778 -0.25758046 0.004440187 -0.26374617 -0.1541936
0.0015161446 -0.30626974 -0.3081856 -0.16836573 -0.1196391 0.045408722 -0.021571083 -0.15083899
-0.15233529 -0.17482354 -0.06608512 -0.111120835 0.054764938 -0.19974178 -0.045114476 0.019940365
0.042171787 0.031605683 -0.02947608 0.006555139 0.063821115 -0.18260698 -0.16768405 -0.09096193
-0.026407128 -0.09004284 -0.17878169 -0.17506136 -0.0044792956 0.029212397 -0.07485781 -0.07026045
0.028981095 -0.14222686 -0.19338003 -0.05166273 -0.10743198 -0.03852222 -0.089781575 -0.22112387
0.011645584 0.045363076 -0.18874112 -0.06908606 -0.092556335 -0.19242449 -0.039697744 0.0038533455
0.059866294 -0.022536773 -0.082650125 -0.1668326 0.043467183 -0.100767195 -0.06287717 -0.12401606
-0.07409093 -0.15172507 -0.18137984 -0.08914629 0.062945545 -0.16485901 0.021997936 0.0061188256
-0.12887067 0.202572 0.4805681 0.20486297 0.15317154 0.25348008 0.24198408 0.07067132
0.18561196 -0.16703206 0.27074847 0.3458585 -0.10213163 0.18833561 -0.037745424 0.26959294

model.6.bias f4 [60]
00000000: 810b 36be 8810 8c3d 34a2 0e3e 4de3 66bd
00000010: e34f 2a3e 5da2 fbbc 6d50 3cbd 57b0 a6bd
00000020: ec7f aabc 0917 ec3c 81f3 1f3e 8f35 38be
00000030: dfd3 b83d ef2c 28be aec5 51be 568b febc
00000040: 32db 493d db88 b83e c658 b83d 04aa a13e
00000050: b76e 4d3e 8233 26be 4d7a f63c 2b99 efbc
00000060: 1241 3cbc 9c67 263e 75fa 603e 37b8 5d3e
00000070: a42e 293e e433 1b3e caeb cfbd 76b7 973e
00000080: b068 25bd 8337 183e f7c7 0dbe be6f 8c3e
00000090: b022 44be f6e0 403e 8abc 433c eaa2 fcbd
000000a0: eec2 94bd a365 f83d f5a8 a73e 564b 0c3e
000000b0: 321a 0dbe aca1 a43e ba61 e13d 0363 da3d
000000c0: 87c6 8abd c084 a93e 6b82 873e d219 aa3a
000000d0: a184 6a3e 6c63 07be f824 ee3d bbc5 993d
000000e0: 665a 803e 7e2d 26be 4fb3 353d a09a 7a3e
-0.17777826 0.068390906 0.13929063 -0.056369115 0.16632037 -0.03071707 -0.045975138 -0.08139103
-0.020812951 0.028819578 0.15620233 -0.17989181 0.09024786 -0.16423391 -0.20485565 -0.0310723
0.049281307 0.36041912 0.09001307 0.31575024 0.20061766 -0.16230586 0.030087614 -0.02924784
-0.011490123 0.16250461 0.21970542 0.21652304 0.16521698 0.15156513 -0.10152395 0.29632157
-0.04038304 0.14864926 -0.13845812 0.27429003 -0.19153857 0.18835816 0.011946807 -0.12335761
-0.072637424 0.12128761 0.3274609 0.13700613 -0.13779524 0.32154596 0.11004968 0.10663416
-0.06776147 0.33109093 0.2646669 0.0012977666 0.22902156 -0.1322152 0.11628145 0.07508417
0.2506897 -0.16228291 0.044360455 0.24473047

model.9.weight f4 [6, 60]
00000000: 0ea3 5ebd fefc c6be 3c60 6bbd d944 c23c
00000010: 76f5 2a3e 4370 8fbd 5fd2 3ebf c029 bebd
00000020: d99b b0be e215 923d b47b 193e 7c6d 55be
00000030: 9726 4a3e e3db fd3d 1820 cabd 9e90 90bf
00000040: a5bf 63bd 8216 613e e0f5 75bf 6d36 a13e
00000050: 3fcb 893d b4bf 943d 00fb 48bf 5f3e 48bf
00000060: 6fcd 65bf d4c2 f53d 9e51 343e 3189 bb3d
00000070: 9991 993e 02cf 453e 3688 72bf cfa8 343e
00000080: 7d94 0f3d a875 dfbd 4d80 a7be 4775 c53e
00000090: c566 1d3e 393e e23e 616a 913d 3847 01bf
000000a0: 4dc8 c2bb 1d70 053e 891c 853e 759b 88bd
000000b0: a059 bebd ed1a 3d3e a4d6 09be 1cac 283d
000000c0: 4d7c 26bd e4ba 5b3e c41d d53d 9b5d 933d
000000d0: e607 b13e 0dd8 03be f4fa 08be f962 3b3e
000000e0: 4056 513e 5072 d53d 2ab6 84be a757 be3e
000000f0: 1b64 65bd 124c 153e 07ac d7be 9ed6 a2ba
00000100: 4887 d7be 0a20 3a3e f170 0cbe fd00 42bd
00000110: 751f 4abe 8d9b 753e 1c47 6f3e 2bb5 d53d
00000120: 4ffa b4be 8dcd c8bd a545 093d e571 253e
00000130: de83 c4be 44c5 ee3d d531 3d3e 155c 9fbe
00000140: 64a0 503e c8cc 933a fb28 16bf 390a ab3d
00000150: c7c9 4c3e a4c2 463e 2530 403e 66e7 d7be
00000160: 60f7 423e 24f3 863e ab7a 043e 02d6 063e
00000170: 4ae8 05be 2285 79be a2fd 81bd 6ac9 61be
00000180: 1f7a a0bb 06a7 c3bd 1879 fcbb 75af 51bd
00000190: 9aeb 83bc dc05 4f3e 5b11 bbbe dd8e c1be
000001a0: cec7 033c ef4a dcbe 98d2 8d3e 7c18 bc3c
000001b0: 977d f13b 5452 b9be 1481 5f3e db00 003d
000001c0: 9728 55be e125 b03c 98aa 0f3e 2fb1 db3e
000001d0: ce58 0ebf aba3 50bd bdae 05be 2c6f bbbe
000001e0: f20f f7bd 668b 323e d64f c23d 38e0 df3c
000001f0: e923 8d3d ae46 bc3d 13be 753e 9b83 063e
00000200: 0f77 6f3e 55e3 143e ecad f43d 9f6f 593d
00000210: 17cb a1bc 1251 013e 775a 063d c49a 273e
00000220: 6f35 f23d f786 493d 0230 4f3e 4d2a 9e3d
00000230: 8daa 3abc f648 96bd 9b0c b43e 5f0f 373e
00000240: b65d 783e a4fd b33d fdae 4f3d 9347 333d
00000250: fb33 3fbf fa25 ce3d 6a9c 2b3e a514 973d
00000260: 1877 41bd a84f 603e 8b95 2c3e 9651 7cbe
00000270: f175 0ebc f95e f8be 5118 143d 7567 e6bd
00000280: 7123 f13b 3096 b73d 9c38 ebbd be8b 693e
00000290: be76 eb3d 9fb9 ca3d def2 913d 1409 093d
000002a0: 5636 92bc b0b9 7d3d 9fd0 a73d fbc8 033e
000002b0: 6044 be3c 9b5e 28be 3a98 7a3d e5e4 c2be
000002c0: d0f9 0f3e 1990 fdbc 5a1e 743e 85fb 8bbe
000002d0: e054 be3c e0d5 253e 9894 353e ffeb 683d
000002e0: f525 113d 4525 b1bd 8d71 873e 5992 253c
000002f0: 6645 903e f205 eabd 4f85 c3be 2e7b 9f3d
00000300: b525 4c3d e0bc a9bc 55b7 113d 9c6e 3f3e
00000310: 6fa2 2a3e bba9 9dbe 2345 623e ae3e eb3b
00000320: eef0 3abe 75bb aebd a613 e33e 9b64 533e
00000330: 24b4 813e 6990 13be 19bf f1be af9c c33c
00000340: 1be9 57be 1a01 ecbd 682e 3b3e f4de 49be
00000350: e098 70bd b18d 5c3e 3a30 673e 57eb 08bf
00000360: 5f32 ba3d e413 6ebe f535 10bd 526a 223f
00000370: 6168 3f3d f052 f3be 9cca 9cbe 395d 733e
00000380: 8d90 c2bd ec25 723d d1ba 8fbd 79a9 a3bd
00000390: 9186 04be 274e dabd 00f8 3bbe f938 58bd
000003a0: c0cf 4cbe 0303 183f c287 513e 7675 afbe
000003b0: 1c48 193e 5a3e 043e 1c6b 6e3e 9a21 33be
000003c0: dfb7 2cbd eee7 59be 025c 96be c0cb e23b
000003d0: d4a1 9cbe 2950 34be 40f9 363d 920f a0bd
000003e0: ee37 babd 7f79 a2bd 5f59 5cbe c0b9 14bc
000003f0: ba2a 81be 019f 833d 76f6 2e3d d784 a0bf
-0.05435472 -0.38864893 -0.057464823 0.02371447 0.16695198 -0.07003834 -0.7453975 -0.09285307
-0.34493902 0.0713308 0.14988595 -0.20842546 0.19741283 0.12395456 -0.09869403 -1.1294134
-0.05560269 0.21981242 -0.960783 0.31486836 0.06728219 0.07263127 -0.78507996 -0.7822017
-0.8976659 0.12000051 0.1760926 0.091570266 0.29993895 0.19317248 -0.9473909 0.1764252
0.03505372 -0.10911113 -0.32715073 0.38566038 0.15371235 0.44188097 0.07100368 -0.50499296
-0.005944288 0.13031049 0.25998333 -0.06670276 -0.09294438 0.18467303 -0.13460785 0.04117976
-0.040645886 0.21458012 0.10406068 0.07195588 0.3457634 -0.12875386 -0.13376981 0.18299474
0.20443058 0.10422194 -0.2592023 0.37176248 -0.05600367 0.145798 -0.42123434 -0.001242358
-0.420954 0.18176284 -0.13714959 -0.047364224 -0.19738562 0.23985119 0.2336697 0.10434946
-0.3534722 -0.09804831 0.033513684 0.16156729 -0.38381857 0.11658719 0.1847604 -0.3112494
0.20373684 0.001127624 -0.5865628 0.08351559 0.19998847 0.19410187 0.18768366 -0.4216873
0.19039679 0.26357377 0.12937419 0.13167575 -0.13076892 -0.24367192 -0.06347205 -0.2204949
-0.0048973705 -0.095533416 -0.007704865 -0.05119272 -0.016103555 0.20217079 -0.3653668 -0.3780431
0.008043243 -0.4302592 0.27699733 0.022960894 0.007369708 -0.36195624 0.21826583 0.031250816
-0.20816265 0.021502437 0.1402992 0.42908618 -0.55604255 -0.050937336 -0.13054939 -0.36608255
-0.12063588 0.17435989 0.09487884 0.027328596 0.06891615 0.091931686 0.23998289 0.13136141
0.23385261 0.14539845 0.119472355 0.053084966 -0.019750161 0.12628582 0.032801118 0.16367632
0.11826598 0.049200978 0.20233157 0.07722912 -0.011393202 -0.07338135 0.35165867 0.17876957
0.24254498 0.087886125 0.05070399 0.04376943 -0.7468869 0.10065837 0.16758886 0.073769845
-0.047232717 0.21905386 0.16853921 -0.24640498 -0.008695112 -0.48509958 0.036156002 -0.112502016
0.0073589613 0.08964193 -0.11485407 0.22807214 0.11497258 0.09898686 0.07126401 0.033455923
-0.017848175 0.061944664 0.08194088 0.12869637 0.023225963 -0.16442339 0.06118033 -0.38065258
0.1406014 -0.0309525 0.23839703 -0.27340332 0.02323383 0.16194868 0.17732465 0.05686569
0.03543659 -0.08649687 0.2645382 0.010105693 0.28177947 -0.11426915 -0.38187644 0.077871665
0.049840648 -0.020719945 0.03557523 0.18694538 0.16663526 -0.30793557 0.22096686 0.007179103
-0.1825597 -0.08531848 0.44350928 0.20643847 0.2533275 -0.14410557 -0.47216108 0.023878423
-0.21085016 -0.115236476 0.18279421 -0.19713956 -0.058739543 0.21538426 0.2257699 -0.534841
0.09091639 -0.23249775 -0.035207707 0.6344348 0.046730403 -0.47524214 -0.3062333 0.2376603
-0.09500227 0.059118196 -0.07018054 -0.07991309 -0.12941958 -0.106594376 -0.18356323 -0.05278871
-0.20001125 0.59379596 0.20461944 -0.34269303 0.14968914 0.1291441 0.23283046 -0.17493287
-0.04216754 -0.2127988 -0.2936707 0.0069212615 -0.30592215 -0.17608704 0.044671297 -0.0781547
-0.09092699 -0.0793333 -0.21518467 -0.009077489 -0.2522791 0.06426812 0.042715512 -1.254054

model.9.bias f4 [6]
00000000: c2a1 8e3d 3346 163e 6cac 023d 0cdb b7be
00000010: a511 1cbe e8cc 343e
0.069644466 0.14675216 0.031902716 -0.35909307 -0.15241106 0.1765629
